<?xml version="1.0" ?>
<net batch="1" name="yolov1-tiny" version="2">
	<layers>
		<layer id="0" name="data" precision="FP16" type="Input">
			<output>
				<port id="0">
					<dim>1</dim>
					<dim>3</dim>
					<dim>448</dim>
					<dim>448</dim>
				</port>
			</output>
		</layer>
		<layer id="1" name="conv1" precision="FP16" type="Convolution">
			<data dilation-x="1" dilation-y="1" group="1" kernel-x="3" kernel-y="3" output="16" pad-x="1" pad-y="1" stride="1,1,1,1" stride-x="1" stride-y="1"/>
			<input>
				<port id="0">
					<dim>1</dim>
					<dim>3</dim>
					<dim>448</dim>
					<dim>448</dim>
				</port>
			</input>
			<output>
				<port id="3">
					<dim>1</dim>
					<dim>16</dim>
					<dim>448</dim>
					<dim>448</dim>
				</port>
			</output>
			<blobs>
				<weights offset="0" size="864"/>
				<biases offset="864" size="32"/>
			</blobs>
		</layer>
		<layer id="2" name="relu1" precision="FP16" type="ReLU">
			<data engine="caffe.ReLUParameter.DEFAULT" negative_slope="0.0"/>
			<input>
				<port id="0">
					<dim>1</dim>
					<dim>16</dim>
					<dim>448</dim>
					<dim>448</dim>
				</port>
			</input>
			<output>
				<port id="1">
					<dim>1</dim>
					<dim>16</dim>
					<dim>448</dim>
					<dim>448</dim>
				</port>
			</output>
		</layer>
		<layer id="3" name="pool1" precision="FP16" type="Pooling">
			<data exclude-pad="false" kernel-x="2" kernel-y="2" pad-x="0" pad-y="0" pool-method="max" rounding_type="ceil" stride="1,1,2,2" stride-x="2" stride-y="2"/>
			<input>
				<port id="0">
					<dim>1</dim>
					<dim>16</dim>
					<dim>448</dim>
					<dim>448</dim>
				</port>
			</input>
			<output>
				<port id="1">
					<dim>1</dim>
					<dim>16</dim>
					<dim>224</dim>
					<dim>224</dim>
				</port>
			</output>
		</layer>
		<layer id="4" name="conv2" precision="FP16" type="Convolution">
			<data dilation-x="1" dilation-y="1" group="1" kernel-x="3" kernel-y="3" output="32" pad-x="1" pad-y="1" stride="1,1,1,1" stride-x="1" stride-y="1"/>
			<input>
				<port id="0">
					<dim>1</dim>
					<dim>16</dim>
					<dim>224</dim>
					<dim>224</dim>
				</port>
			</input>
			<output>
				<port id="3">
					<dim>1</dim>
					<dim>32</dim>
					<dim>224</dim>
					<dim>224</dim>
				</port>
			</output>
			<blobs>
				<weights offset="896" size="9216"/>
				<biases offset="10112" size="64"/>
			</blobs>
		</layer>
		<layer id="5" name="relu2" precision="FP16" type="ReLU">
			<data engine="caffe.ReLUParameter.DEFAULT" negative_slope="0.0"/>
			<input>
				<port id="0">
					<dim>1</dim>
					<dim>32</dim>
					<dim>224</dim>
					<dim>224</dim>
				</port>
			</input>
			<output>
				<port id="1">
					<dim>1</dim>
					<dim>32</dim>
					<dim>224</dim>
					<dim>224</dim>
				</port>
			</output>
		</layer>
		<layer id="6" name="pool2" precision="FP16" type="Pooling">
			<data exclude-pad="false" kernel-x="2" kernel-y="2" pad-x="0" pad-y="0" pool-method="max" rounding_type="ceil" stride="1,1,2,2" stride-x="2" stride-y="2"/>
			<input>
				<port id="0">
					<dim>1</dim>
					<dim>32</dim>
					<dim>224</dim>
					<dim>224</dim>
				</port>
			</input>
			<output>
				<port id="1">
					<dim>1</dim>
					<dim>32</dim>
					<dim>112</dim>
					<dim>112</dim>
				</port>
			</output>
		</layer>
		<layer id="7" name="conv3" precision="FP16" type="Convolution">
			<data dilation-x="1" dilation-y="1" group="1" kernel-x="3" kernel-y="3" output="64" pad-x="1" pad-y="1" stride="1,1,1,1" stride-x="1" stride-y="1"/>
			<input>
				<port id="0">
					<dim>1</dim>
					<dim>32</dim>
					<dim>112</dim>
					<dim>112</dim>
				</port>
			</input>
			<output>
				<port id="3">
					<dim>1</dim>
					<dim>64</dim>
					<dim>112</dim>
					<dim>112</dim>
				</port>
			</output>
			<blobs>
				<weights offset="10176" size="36864"/>
				<biases offset="47040" size="128"/>
			</blobs>
		</layer>
		<layer id="8" name="relu3" precision="FP16" type="ReLU">
			<data engine="caffe.ReLUParameter.DEFAULT" negative_slope="0.0"/>
			<input>
				<port id="0">
					<dim>1</dim>
					<dim>64</dim>
					<dim>112</dim>
					<dim>112</dim>
				</port>
			</input>
			<output>
				<port id="1">
					<dim>1</dim>
					<dim>64</dim>
					<dim>112</dim>
					<dim>112</dim>
				</port>
			</output>
		</layer>
		<layer id="9" name="pool3" precision="FP16" type="Pooling">
			<data exclude-pad="false" kernel-x="2" kernel-y="2" pad-x="0" pad-y="0" pool-method="max" rounding_type="ceil" stride="1,1,2,2" stride-x="2" stride-y="2"/>
			<input>
				<port id="0">
					<dim>1</dim>
					<dim>64</dim>
					<dim>112</dim>
					<dim>112</dim>
				</port>
			</input>
			<output>
				<port id="1">
					<dim>1</dim>
					<dim>64</dim>
					<dim>56</dim>
					<dim>56</dim>
				</port>
			</output>
		</layer>
		<layer id="10" name="conv4" precision="FP16" type="Convolution">
			<data dilation-x="1" dilation-y="1" group="1" kernel-x="3" kernel-y="3" output="128" pad-x="1" pad-y="1" stride="1,1,1,1" stride-x="1" stride-y="1"/>
			<input>
				<port id="0">
					<dim>1</dim>
					<dim>64</dim>
					<dim>56</dim>
					<dim>56</dim>
				</port>
			</input>
			<output>
				<port id="3">
					<dim>1</dim>
					<dim>128</dim>
					<dim>56</dim>
					<dim>56</dim>
				</port>
			</output>
			<blobs>
				<weights offset="47168" size="147456"/>
				<biases offset="194624" size="256"/>
			</blobs>
		</layer>
		<layer id="11" name="relu4" precision="FP16" type="ReLU">
			<data engine="caffe.ReLUParameter.DEFAULT" negative_slope="0.0"/>
			<input>
				<port id="0">
					<dim>1</dim>
					<dim>128</dim>
					<dim>56</dim>
					<dim>56</dim>
				</port>
			</input>
			<output>
				<port id="1">
					<dim>1</dim>
					<dim>128</dim>
					<dim>56</dim>
					<dim>56</dim>
				</port>
			</output>
		</layer>
		<layer id="12" name="pool4" precision="FP16" type="Pooling">
			<data exclude-pad="false" kernel-x="2" kernel-y="2" pad-x="0" pad-y="0" pool-method="max" rounding_type="ceil" stride="1,1,2,2" stride-x="2" stride-y="2"/>
			<input>
				<port id="0">
					<dim>1</dim>
					<dim>128</dim>
					<dim>56</dim>
					<dim>56</dim>
				</port>
			</input>
			<output>
				<port id="1">
					<dim>1</dim>
					<dim>128</dim>
					<dim>28</dim>
					<dim>28</dim>
				</port>
			</output>
		</layer>
		<layer id="13" name="conv5" precision="FP16" type="Convolution">
			<data dilation-x="1" dilation-y="1" group="1" kernel-x="3" kernel-y="3" output="256" pad-x="1" pad-y="1" stride="1,1,1,1" stride-x="1" stride-y="1"/>
			<input>
				<port id="0">
					<dim>1</dim>
					<dim>128</dim>
					<dim>28</dim>
					<dim>28</dim>
				</port>
			</input>
			<output>
				<port id="3">
					<dim>1</dim>
					<dim>256</dim>
					<dim>28</dim>
					<dim>28</dim>
				</port>
			</output>
			<blobs>
				<weights offset="194880" size="589824"/>
				<biases offset="784704" size="512"/>
			</blobs>
		</layer>
		<layer id="14" name="relu5" precision="FP16" type="ReLU">
			<data engine="caffe.ReLUParameter.DEFAULT" negative_slope="0.0"/>
			<input>
				<port id="0">
					<dim>1</dim>
					<dim>256</dim>
					<dim>28</dim>
					<dim>28</dim>
				</port>
			</input>
			<output>
				<port id="1">
					<dim>1</dim>
					<dim>256</dim>
					<dim>28</dim>
					<dim>28</dim>
				</port>
			</output>
		</layer>
		<layer id="15" name="pool5" precision="FP16" type="Pooling">
			<data exclude-pad="false" kernel-x="2" kernel-y="2" pad-x="0" pad-y="0" pool-method="max" rounding_type="ceil" stride="1,1,2,2" stride-x="2" stride-y="2"/>
			<input>
				<port id="0">
					<dim>1</dim>
					<dim>256</dim>
					<dim>28</dim>
					<dim>28</dim>
				</port>
			</input>
			<output>
				<port id="1">
					<dim>1</dim>
					<dim>256</dim>
					<dim>14</dim>
					<dim>14</dim>
				</port>
			</output>
		</layer>
		<layer id="16" name="conv6" precision="FP16" type="Convolution">
			<data dilation-x="1" dilation-y="1" group="1" kernel-x="3" kernel-y="3" output="512" pad-x="1" pad-y="1" stride="1,1,1,1" stride-x="1" stride-y="1"/>
			<input>
				<port id="0">
					<dim>1</dim>
					<dim>256</dim>
					<dim>14</dim>
					<dim>14</dim>
				</port>
			</input>
			<output>
				<port id="3">
					<dim>1</dim>
					<dim>512</dim>
					<dim>14</dim>
					<dim>14</dim>
				</port>
			</output>
			<blobs>
				<weights offset="785216" size="2359296"/>
				<biases offset="3144512" size="1024"/>
			</blobs>
		</layer>
		<layer id="17" name="relu6" precision="FP16" type="ReLU">
			<data engine="caffe.ReLUParameter.DEFAULT" negative_slope="0.0"/>
			<input>
				<port id="0">
					<dim>1</dim>
					<dim>512</dim>
					<dim>14</dim>
					<dim>14</dim>
				</port>
			</input>
			<output>
				<port id="1">
					<dim>1</dim>
					<dim>512</dim>
					<dim>14</dim>
					<dim>14</dim>
				</port>
			</output>
		</layer>
		<layer id="18" name="pool6" precision="FP16" type="Pooling">
			<data exclude-pad="false" kernel-x="2" kernel-y="2" pad-x="0" pad-y="0" pool-method="max" rounding_type="ceil" stride="1,1,2,2" stride-x="2" stride-y="2"/>
			<input>
				<port id="0">
					<dim>1</dim>
					<dim>512</dim>
					<dim>14</dim>
					<dim>14</dim>
				</port>
			</input>
			<output>
				<port id="1">
					<dim>1</dim>
					<dim>512</dim>
					<dim>7</dim>
					<dim>7</dim>
				</port>
			</output>
		</layer>
		<layer id="19" name="conv7" precision="FP16" type="Convolution">
			<data dilation-x="1" dilation-y="1" group="1" kernel-x="3" kernel-y="3" output="1024" pad-x="1" pad-y="1" stride="1,1,1,1" stride-x="1" stride-y="1"/>
			<input>
				<port id="0">
					<dim>1</dim>
					<dim>512</dim>
					<dim>7</dim>
					<dim>7</dim>
				</port>
			</input>
			<output>
				<port id="3">
					<dim>1</dim>
					<dim>1024</dim>
					<dim>7</dim>
					<dim>7</dim>
				</port>
			</output>
			<blobs>
				<weights offset="3145536" size="9437184"/>
				<biases offset="12582720" size="2048"/>
			</blobs>
		</layer>
		<layer id="20" name="relu7" precision="FP16" type="ReLU">
			<data engine="caffe.ReLUParameter.DEFAULT" negative_slope="0.0"/>
			<input>
				<port id="0">
					<dim>1</dim>
					<dim>1024</dim>
					<dim>7</dim>
					<dim>7</dim>
				</port>
			</input>
			<output>
				<port id="1">
					<dim>1</dim>
					<dim>1024</dim>
					<dim>7</dim>
					<dim>7</dim>
				</port>
			</output>
		</layer>
		<layer id="21" name="conv8" precision="FP16" type="Convolution">
			<data dilation-x="1" dilation-y="1" group="1" kernel-x="3" kernel-y="3" output="256" pad-x="1" pad-y="1" stride="1,1,1,1" stride-x="1" stride-y="1"/>
			<input>
				<port id="0">
					<dim>1</dim>
					<dim>1024</dim>
					<dim>7</dim>
					<dim>7</dim>
				</port>
			</input>
			<output>
				<port id="3">
					<dim>1</dim>
					<dim>256</dim>
					<dim>7</dim>
					<dim>7</dim>
				</port>
			</output>
			<blobs>
				<weights offset="12584768" size="4718592"/>
				<biases offset="17303360" size="512"/>
			</blobs>
		</layer>
		<layer id="22" name="relu8" precision="FP16" type="ReLU">
			<data engine="caffe.ReLUParameter.DEFAULT" negative_slope="0.0"/>
			<input>
				<port id="0">
					<dim>1</dim>
					<dim>256</dim>
					<dim>7</dim>
					<dim>7</dim>
				</port>
			</input>
			<output>
				<port id="1">
					<dim>1</dim>
					<dim>256</dim>
					<dim>7</dim>
					<dim>7</dim>
				</port>
			</output>
		</layer>
		<layer id="23" name="fc9" precision="FP16" type="FullyConnected">
			<data out-size="931"/>
			<input>
				<port id="0">
					<dim>1</dim>
					<dim>256</dim>
					<dim>7</dim>
					<dim>7</dim>
				</port>
			</input>
			<output>
				<port id="3">
					<dim>1</dim>
					<dim>931</dim>
				</port>
			</output>
			<blobs>
				<weights offset="17303872" size="23356928"/>
				<biases offset="40660800" size="1862"/>
			</blobs>
		</layer>
	</layers>
	<edges>
		<edge from-layer="0" from-port="0" to-layer="1" to-port="0"/>
		<edge from-layer="1" from-port="3" to-layer="2" to-port="0"/>
		<edge from-layer="2" from-port="1" to-layer="3" to-port="0"/>
		<edge from-layer="3" from-port="1" to-layer="4" to-port="0"/>
		<edge from-layer="4" from-port="3" to-layer="5" to-port="0"/>
		<edge from-layer="5" from-port="1" to-layer="6" to-port="0"/>
		<edge from-layer="6" from-port="1" to-layer="7" to-port="0"/>
		<edge from-layer="7" from-port="3" to-layer="8" to-port="0"/>
		<edge from-layer="8" from-port="1" to-layer="9" to-port="0"/>
		<edge from-layer="9" from-port="1" to-layer="10" to-port="0"/>
		<edge from-layer="10" from-port="3" to-layer="11" to-port="0"/>
		<edge from-layer="11" from-port="1" to-layer="12" to-port="0"/>
		<edge from-layer="12" from-port="1" to-layer="13" to-port="0"/>
		<edge from-layer="13" from-port="3" to-layer="14" to-port="0"/>
		<edge from-layer="14" from-port="1" to-layer="15" to-port="0"/>
		<edge from-layer="15" from-port="1" to-layer="16" to-port="0"/>
		<edge from-layer="16" from-port="3" to-layer="17" to-port="0"/>
		<edge from-layer="17" from-port="1" to-layer="18" to-port="0"/>
		<edge from-layer="18" from-port="1" to-layer="19" to-port="0"/>
		<edge from-layer="19" from-port="3" to-layer="20" to-port="0"/>
		<edge from-layer="20" from-port="1" to-layer="21" to-port="0"/>
		<edge from-layer="21" from-port="3" to-layer="22" to-port="0"/>
		<edge from-layer="22" from-port="1" to-layer="23" to-port="0"/>
	</edges>
</net>
